chatbot-deployment-main/data.pth (torch, 7914 bytes, 6 tensors)

l1.weight f4 [8, 106]
00000000: 08d8 94be 9d0d fd3e ac78 2e3e 7241 87bd
00000010: eeff e93e 6de8 d0bd 7246 353e 25ff 013f
00000020: 3957 383f 858b 913e fc40 2cbe 8628 c33e
00000030: acf5 c6be e2b1 b53d ddda 6abe d165 8fbe
00000040: ab0e 223d 5559 1c3d ade4 863e 8144 793e
00000050: 9a7b 023f b677 1b3e 6ee8 dfbd ad95 d2bd
00000060: 5dae 4d3e 061e aabe b0d0 e53d 54a4 03be
00000070: f053 d43e 47ff 843e 0fee b83e 2e31 d33d
00000080: a16d 863e 7d04 043e 172d d83e d755 61be
00000090: ba95 3d3e d6ad 31be 3a01 31be 63e6 c6be
000000a0: 544a b6bd 68b8 4f3d 7f35 88bd a441 ee3e
000000b0: 75f5 0dbe 00ea 63bd 4d7b 643f a480 9dbe
000000c0: 727c 0e3e f254 153f 8900 2dbf 763a 26be
000000d0: de60 0b3e 0db4 1c3f a86b c7be 35a0 14bf
000000e0: 2caf 503e 81e9 c6be ef21 72be b088 1a3d
000000f0: 9781 e93e 489a 0c3f b671 a5bd 9a84 92bd
00000100: ef70 cfbe 5b9a 283f 4c58 223e 1661 31be
00000110: 03ba f5bd 8d4e 143f 09a0 72be 6965 0c3e
00000120: 3d28 28be 4455 2f3d 667e 153f 2f68 ca3d
00000130: d6fa 93be ee92 53bd 5f04 91be 141e adbd
00000140: a041 693e 8ba8 ce3e 8c28 99be 0284 c8be
00000150: ef81 7e3e 375b 093f fcc5 833d 2d27 23be
00000160: 4df1 843e 15a0 8c3f 2f38 023f 9990 fcbd
00000170: 9dac 7a3e c91f d73e 3993 e13d 53a2 ce3e
00000180: 5814 30bd c394 0ebf c480 fb3e 8a88 ce3e
00000190: 7ba0 483e b455 843b 813d db3e 5825 113d
000001a0: b102 913e eb8f dd3d 437b d0be ad80 103f
000001b0: dc3f 43bc d85c 733d a806 023e 6d1b 0e3e
000001c0: c82e 0e3f 8bf0 22be c109 193f ff2a ad3d
000001d0: fc34 c8bd f001 92be eea3 28bf 814a c23d
000001e0: 21d1 b4be e3d8 10bf 4a54 043f 1213 123f
000001f0: f029 b9be 455e d3be c48e 6a3d 9d7f 393e
00000200: cb3a e83e 3d74 ac3e 1af4 c1be 830e 323f
00000210: f139 8fbe 73b7 c83e 4f30 333f ddd5 27bf
00000220: 0086 89bf ecbf 9abc 331e 0dbf 6a6b 223f
00000230: 6acb 403e aca8 42be 1b55 86be 59db 4b3e
00000240: cb5f a43e 53da 28bf fd63 a53e 43d4 133f
00000250: 4c06 423e 40ae 75be afdf 663e fc8a 5b3e
00000260: 2c4c 323e 3119 25be 9e69 113f 7222 c03e
00000270: 638c d4ba b02b 3d3f 72c1 adbe cdf0 ea3e
00000280: 0846 a3be 2ed9 183f 1bb6 30be 56a5 28bf
00000290: 9b18 71be 035c 19be 586b 063f 8488 ad3e
000002a0: 7a4d 3d3e a3b2 653e c602 e63e 9e2d 283f
000002b0: 6954 553f a4dd 763f f101 0cbe 179c 1f3f
000002c0: a10f 19bf a2bb 99be df5c 513e f7af 76bd
000002d0: 9b22 a4be c361 10bf 1802 8c3e bbd7 2abe
000002e0: 6754 00bf 062c a33e f096 ebbe 321e 183d
000002f0: 021e b23e 1a7f 17bf ad50 09bf 4e81 0b3e
00000300: 6834 8cbe 0ab1 9cbe 8e8e d43d 4a23 893f
00000310: 8d9b d7be 0422 9d3e 98b0 bcbe 725f 373d
00000320: f5b9 16be fc85 cabd 61c1 7ebe 2683 983d
00000330: a2fc 13be 1924 d03e a9ad eb3e cabe 0dbf
00000340: cb59 9abe 4fa2 86be cb79 063f 4230 73be
00000350: 0e9e d53e 0a7a f5be 92f1 363e 73c9 f63e
00000360: fb01 cc3e 4293 aabe 89ed 2f3f 526f 8b3e
00000370: 590f 02bf 1d93 2fbf 7d2c 183f 880a b33e
00000380: 6bd2 443f a6da d1bc eae8 0f3f d981 063f
00000390: 96f9 16be 3c3e 5abe b10f 063f 8c23 e53e
000003a0: 4eb2 8ebe 6f10 ea3e 04da c63d fd7b 83be
000003b0: 4310 f33e 1b61 95be 312d ab3e c8c2 3bbc
000003c0: f345 00bf 35df fe3e 9037 503f b1fc 0e3f
000003d0: 259c 30be bff8 a6be 9c9b 24bd 1c1f 523f
000003e0: ea0c fc3e 4b3b 0fbd 9d41 c2be 9c57 483f
000003f0: b299 0abf 7f38 79be 3f9c 0dbf 5967 ba3e
-0.2907107 0.4942445 0.1703822 -0.066042796 0.4570307 -0.10200582 0.17702654 0.50779945
0.7200809 0.28426757 -0.16821665 0.38116854 -0.38859308 0.08871819 -0.22935052 -0.28007367
0.03956477 0.03817113 0.2634634 0.24342538 0.5096985 0.15182385 -0.10933004 -0.10282455
0.20086046 -0.3322603 0.112214446 -0.12855655 0.4147029 0.2597601 0.36119124 0.10312115
0.26255515 0.12892337 0.422219 -0.22005402 0.18514147 -0.1735147 -0.17285624 -0.38847646
-0.08900896 0.050712973 -0.066508286 0.46534455 -0.13863166 -0.05564308 0.8925064 -0.30762208
0.1391466 0.5833274 -0.6757894 -0.16233239 0.1361117 0.61212236 -0.38949323 -0.58056957
0.20379323 -0.38850024 -0.23645757 0.03772801 0.45606682 0.54922915 -0.08078329 -0.07154198
-0.4051585 0.6586053 0.15853995 -0.17322192 -0.119983695 0.5793236 -0.23693861 0.1371056
-0.164216 0.042805925 0.58395994 0.09883153 -0.2890231 -0.051653795 -0.28323647 -0.084530026
0.2277894 0.40362963 -0.29913747 -0.39163214 0.24854253 0.5365481 0.06434247 -0.15932913
0.25965348 1.0986353 0.5086698 -0.12332267 0.24479909 0.42016438 0.110144086 0.4035822
-0.04298815 -0.5569574 0.49121678 0.40338546 0.19592468 0.004038537 0.4282036 0.035436004
0.28322366 0.10818466 -0.4071904 0.56446344 -0.011917081 0.059414715 0.12697852 0.1387765
0.5554013 -0.15912072 0.5978051 0.084554665 -0.09775731 -0.28517103 -0.65875137 0.09486867
-0.35315803 -0.5658094 0.51691115 0.5706035 -0.36164808 -0.4128286 0.05726506 0.18115087
0.45357355 0.33682433 -0.37881547 0.69553393 -0.27973893 0.3920246 0.6999559 -0.65560704
-1.0744019 -0.018890344 -0.55124205 0.6344515 0.18827596 -0.19009656 -0.26236805 0.19907893
0.32104334 -0.65958136 0.32302848 0.5774576 0.18947715 -0.23992252 0.22546266 0.21439737
0.1741187 -0.16122891 0.56801784 0.3752628 -0.0016216155 0.73894787 -0.3393665 0.4588684
-0.31889367 0.5970639 -0.17256968 -0.6587728 -0.23544542 -0.14976506 0.52507544 0.33893216
0.18486586 0.22431426 0.4492399 0.65694606 0.83331925 0.96431947 -0.13672616 0.6234755
-0.5978947 -0.30025965 0.20445584 -0.060226407 -0.32057652 -0.5639917 0.27345347 -0.16683857
-0.5012879 0.31869525 -0.46013594 0.03713817 0.3478852 -0.59178317 -0.53638726 0.13623545
-0.27383733 -0.3060382 0.10378753 1.0713894 -0.42110863 0.30690014 -0.3685348 0.044768758
-0.14719374 -0.09888837 -0.24878456 0.074468896 -0.1445184 0.4065254 0.4603093 -0.55369246
-0.30146632 -0.26295707 0.5252959 -0.23748878 0.4172215 -0.4794467 0.1786559 0.4820057
0.3984526 -0.33315474 0.68721825 0.27233368 -0.5080467 -0.6858385 0.59442884 0.34968972
0.7688357 -0.025616955 0.56214774 0.5254188 -0.14743647 -0.21312803 0.52367693 0.44753683
-0.2787041 0.45715663 0.09709552 -0.25680533 0.47473344 -0.29175648 0.33432916 -0.011460014
-0.50106734 0.49779668 0.8133478 0.55854326 -0.17247064 -0.32611653 -0.040187463 0.8207872
0.49228603 -0.034968656 -0.37940684 0.7825868 -0.5414077 -0.24337958 -0.5531654 0.36406973

l1.bias f4 [8]
00000000: 5fec c63e 97a3 283f 5747 593f 13d4 193f
00000010: ed44 713f 4a53 723f 31ca 2d3f ef9b 9a3f
0.38852212 0.6587462 0.8487448 0.60089225 0.942458 0.9465834 0.67886645 1.2078837

l2.weight f4 [8, 8]
00000000: cabe 473f 5af4 fb3e cde0 803f afb5 b13f
00000010: c6e3 de3d 4641 403f b38b e6be b9c3 49bf
00000020: 8e71 51bf 687e e13f 382f 813e 853c 8f3f
00000030: 3e3c 123f 4a24 9fbe 7625 0ebe 72b1 f33f
00000040: 70a0 803f 021e 973f d741 82bb cdc6 c5be
00000050: a945 d1bf 2bf0 823f e291 b53f 2975 54bd
00000060: 690f 37bf b69d 1abf 42a5 cc3f b282 943f
00000070: f972 683f a961 7ebe 3045 603f a583 48bf
00000080: 3f2a 663f 0356 973e 82d1 35bd 194b dfbd
00000090: 53c5 d33f de4a bd3f 9a77 53bf 39cf 8e3f
000000a0: f594 f7bd a847 3d3e e2fa aebd 43d7 1ebe
000000b0: f05b 6abe b822 8d3d db9d c8bd e92f 3d3e
000000c0: 47a4 89bf e4f6 98bf 926b cb3f 7faa f0be
000000d0: f606 8b3d 2aaa 193f e1e5 9c3f 82c3 be3f
000000e0: 027c 943f e035 a33e 5cc9 4e3e 6757 1abf
000000f0: 5bec 0b3e 27b4 be3f 45ef b2be ed5d 293f
0.78025496 0.49209863 1.0068604 1.388357 0.10883288 0.750996 -0.45028457 -0.78814274
-0.81813896 1.7616701 0.25231338 1.1190344 0.5712317 -0.31082374 -0.13881478 1.9038527
1.0048962 1.1806033 -0.003975134 -0.38628235 -1.6349384 1.0229543 1.4185145 -0.051869545
-0.7150789 -0.603969 1.5987933 1.1602385 0.90800434 -0.24841942 0.8760557 -0.78325874
0.8990821 0.2955781 -0.044389255 -0.109029956 1.6544594 1.4788473 -0.8260437 1.1156989
-0.12088958 0.18484366 -0.08543946 -0.15511803 -0.22886634 0.06891388 -0.097957335 0.18475308
-1.0753258 -1.1950345 1.5892203 -0.47005078 0.06788437 0.60025275 1.2257653 1.4903414
1.1600344 0.3187704 0.20194 -0.60289615 0.13664381 1.4898728 -0.34948173 0.66158944

l2.bias f4 [8]
00000000: dd4c 5dbe e258 4d3f 75a7 073f 1f4e e53e
00000010: f3cb e03e 7de7 bfbe 4988 f63e 3e6d 053f
-0.21611352 0.8021375 0.52989894 0.44786164 0.439056 -0.374813 0.48150852 0.52119815

l3.weight f4 [12, 8]
00000000: a67b 203f 44b6 1b3f db2d aabf 0628 e73e
00000010: e79f 56bd ba60 403d 7aaa cfbf 4151 88bf
00000020: 1e57 53bd fb1d 5a3e 41f8 533f 72d1 1bbe
00000030: fcb3 50bf 30ad 453e 28fd e0bf 61ca f4bd
00000040: bbd6 3bbf 01c1 953e b8a0 0cc0 c07b c63e
00000050: 3001 80be c154 c6be c543 5a3f 4c05 b6be
00000060: 727a 37bf fd49 323f e5a7 a5bf fd57 00c0
00000070: 25c2 2b3f 9205 7eba b5c4 95bd d8e4 f73d
00000080: 6b1a 3d3e 8f34 bebf 8a30 4f3f 6100 9ebf
00000090: 4c37 793e 4185 603e 055c e7bf 239b 173f
000000a0: 9485 e93e e28e 18be 691b 04bf ec7b 3f3f
000000b0: c40f c9bf c219 8fbe 79e2 ff3e a4ed bdbf
000000c0: 919e 90bf 6344 7d3e 05a7 e33e 8ada ddbe
000000d0: 55c5 50bf 2c7e 5d3e add9 2b3f f9af 65bf
000000e0: 992c 183e 09e7 a0bf 6d4e a33e 4b10 fa3d
000000f0: 3330 3dbf bc6f 88be 6923 db3e 9517 68be
00000100: d65a 303f becf 80bf d751 b4bf 58ed db3e
00000110: c6d3 bd3e 928b 30be f2d7 9e3c 2626 08be
00000120: b827 433f 6229 f13e 4e15 d9be b9f8 dbbf
00000130: 1a14 1e3f 3da1 623e 1713 0dc0 26e9 063d
00000140: c6cf 073f 837b c23e dad4 04bf fd53 01bf
00000150: 598e 6bbe c8d6 0d3e f5fe 1abe acb6 04bd
00000160: c91e f2be aefa 51bf 8a77 043f 6efa e0bf
00000170: 9cc6 273c 2196 8ebe fca4 a93e 15cb 363e
0.6268867 0.6082499 -1.3295244 0.45147723 -0.05239859 0.046967246 -1.62239 -1.0649797
-0.051596753 0.21300499 0.8280068 -0.15216616 -0.81524634 0.19304347 -1.7577257 -0.11952663
-0.7337453 0.29248813 -2.1973095 0.3876629 -0.25000906 -0.38736537 0.8525966 -0.35550916
-0.7167121 0.6964415 -1.2941862 -2.0053704 0.67093116 -0.0009690161 -0.073129095 0.12104195
0.18467109 -1.485979 0.8093344 -1.2343866 0.243375 0.21925832 -1.8074957 0.59221095
0.45609725 -0.14898255 -0.51604325 0.74798465 -1.5707936 -0.2794934 0.49977472 -1.4838147
-1.1298391 0.24733119 0.44463363 -0.43330795 -0.81551105 0.21630162 0.6712902 -0.8972164
0.14860763 -1.2570506 0.31895772 0.12210139 -0.7390167 -0.26647747 0.42800453 -0.22665246
0.68888605 -1.0063398 -1.4087476 0.42954516 0.37075633 -0.17240742 0.01939008 -0.13295802
0.7623248 0.47101885 -0.42399067 -1.7185279 0.6174942 0.2213182 -2.2042902 0.03293719
0.5305141 0.37984857 -0.51887286 -0.5051878 -0.2300352 0.13851464 -0.15136321 -0.032400772
-0.47289112 -0.8202313 0.517449 -1.7576425 0.010240223 -0.27848914 0.33133686 0.17850907

l3.bias f4 [12]
00000000: 89d4 a83e 0757 f63d e03f af3e 8d47 293e
00000010: c654 78bd 0f88 0fbe 4003 d8bc 46f8 6abe
00000020: 29ba 9dbe 47ce 3bbe 76ef 12bf d96f f73d
0.3297465 0.12028318 0.3422842 0.165312 -0.06062772 -0.14016746 -0.026368737 -0.22946271
-0.3080609 -0.18340407 -0.5739664 0.1208188
